iris_model_pytorch.pt (torch, 2927 bytes, 6 tensors)

0.weight f4 [10, 4]
0	0xbcf3c7c0	-0.029758334
1	0xbef77ab8	-0.48335814
2	0xbe3743cc	-0.17896956
3	0xbe7532b4	-0.23945123
4	0xbd6ea400	-0.05826187
5	0xbd9d8378	-0.07691091
6	0xbecdf58c	-0.402264
7	0xbefb6502	-0.491005
8	0xbed5aeec	-0.41735017
9	0xbe31f530	-0.17378688
10	0xbedd31fa	-0.43202192
11	0xbea41bae	-0.32052368
12	0xbe64efe4	-0.22357136
13	0x3e98edf0	0.29869032
14	0xbe6a5264	-0.22882992
15	0xbb7ea200	-0.0038853884
16	0xbed03d6e	-0.40671867
17	0x3e493f96	0.19653162
18	0x3ecf1db4	0.4045235
19	0xbeb20a69	-0.34773567
20	0xbed2ed4c	-0.41196668
21	0x3de15388	0.110022604
22	0x36800000	3.8146973e-06
23	0xbec46104	-0.38355267
24	0x3e09788b	0.1342489
25	0x3b40f2ae	0.0029441523
26	0xbee237b0	-0.4418311
27	0xbe9b3679	-0.30314997
28	0x3f07a6fc	0.5298917
29	0x3f2498a4	0.6429541
30	0xbea6755d	-0.32511416
31	0xbe0e9457	-0.13923775
32	0xbec6ef34	-0.38854373
33	0x3eae32a8	0.34023023
34	0xbea7b0d6	-0.32752103
35	0x3efb2ac2	0.4905606
36	0x3ce6620b	0.028122922
37	0xbea94908	-0.3306353
38	0x3ecf4079	0.40478876
39	0x3f816233	1.0108093

0.bias f4 [10]
0	0xbd9159a8	-0.07097179
1	0x3dddb900	0.108263016
2	0x3e105ffc	0.14099115
3	0x3e153d24	0.14574105
4	0x3e39af6a	0.18133321
5	0x3df19398	0.117957294
6	0xbe60ecbe	-0.2196531
7	0x3e24b4d7	0.1608461
8	0x3ef7711a	0.48328477
9	0x3e9b5114	0.30335295

2.weight f4 [10, 10]
0	0x3e681a7e	0.22666356
1	0xbe976ebf	-0.2957668
2	0x3dbc9cb4	0.09209576
3	0xbceef640	-0.029170156
4	0x3ea03551	0.31290677
5	0xbc1c9d60	-0.0095590055
6	0xbe8f7fac	-0.28027093
7	0x3eb652bb	0.35609993
8	0x3d416b40	0.047221422
9	0xbf1f0290	-0.62113285
10	0xbe8b52f6	-0.27211732
11	0x3dab9158	0.083773315
12	0x3db62cec	0.08895287
13	0xbdd6800a	-0.1047364
14	0x3e224fe2	0.15850785
15	0xbdbdf78a	-0.0927573
16	0xbe08fee8	-0.13378489
17	0x3f1ee881	0.6207352
18	0x3d17c600	0.037054062
19	0xbf20280a	-0.62561095
20	0xbe8a9e9c	-0.27074134
21	0xbe8a95a2	-0.27067286
22	0x3d816f30	0.063200355
23	0xbe929327	-0.28627893
24	0xbccb148c	-0.024790071
25	0x3e4dd3fa	0.20100394
26	0xbdbf3374	-0.09335986
27	0xbe619b42	-0.22031882
28	0x3ae38c00	0.0017360449
29	0x3dc7c354	0.09754053
30	0x3e94cc29	0.29062012
31	0xbe351b87	-0.17686282
32	0x3e860c97	0.2618148
33	0xbc8f8130	-0.017517656
34	0x3e30540c	0.17219561
35	0x3dea05c4	0.11426881
36	0xbc860190	-0.016358167
37	0xbe49f8da	-0.19723836
38	0x3e2c2ff4	0.16815168
39	0xbdb6f4a6	-0.08933382
40	0x3e84b223	0.25917158
41	0xbe15e8ca	-0.14639583
42	0x3d8f4674	0.0699586
43	0xbe600662	-0.21877435
44	0xbe4ef066	-0.20208892
45	0x3db98070	0.09057701
46	0x3de5f4dc	0.11228344
47	0xbe43c3c6	-0.1911765
48	0x3e8335e5	0.25627056
49	0x3eae9542	0.3409825
50	0xbdcf130a	-0.10111053
51	0x3e84a7eb	0.2590936
52	0xbe05e9f0	-0.13077521
53	0x3c29bf40	0.010360539
54	0x3e6c7aae	0.23093674
55	0x3e990023	0.29882917
56	0x3e80109d	0.25012675
57	0xbd845200	-0.06460953
58	0x3e80b9a7	0.25141641
59	0xbd3707b8	-0.044685096
60	0xbe9d1ce0	-0.30686092
61	0x3c303980	0.010755897
62	0x3ddd0458	0.10791844
63	0x3deb8e6c	0.11501774
64	0xbe170e57	-0.14751564
65	0xbe59f9ff	-0.21286772
66	0xbe0b46a9	-0.13601173
67	0x3da90fac	0.08254942
68	0xbdd653de	-0.10465215
69	0x3f60a4ba	0.8775135
70	0xbd31b298	-0.04338321
71	0x3e0ff892	0.14059666
72	0xbd5e33a8	-0.054248482
73	0x3e36a7b0	0.17837405
74	0x3da471f2	0.08029546
75	0xbe7c70b8	-0.24652374
76	0xbc891c70	-0.016737193
77	0xbe8399da	-0.25703317
78	0x3d56d5f8	0.05245015
79	0x3ef2fee7	0.474601
80	0x3e94ea03	0.29084787
81	0xbe5a32f5	-0.21308501
82	0x3e317b96	0.173323
83	0x3e36ce10	0.17852044
84	0x3e02abd6	0.12760863
85	0x3dc08734	0.09400788
86	0xbe701179	-0.23444165
87	0x3e9f215c	0.3108014
88	0x3e665052	0.22491577
89	0xbf12727e	-0.5720595
90	0x3c975760	0.01847428
91	0x3e021fe0	0.12707472
92	0x3e4974fe	0.19673535
93	0x3d30c5f0	0.043157518
94	0x3d30db98	0.04317817
95	0xbdcdd314	-0.100500256
96	0xbc11f360	-0.008908123
97	0x3d2a2e50	0.041548073
98	0x3c4366c0	0.011926353
99	0xbe127556	-0.14302573

2.bias f4 [10]
0	0x3e5d6166	0.21619186
1	0x3ed2de29	0.4118512
2	0x3e011b0b	0.12607972
3	0xbdb8dc9c	-0.09026453
4	0xbe285a92	-0.164408
5	0xbdee2b1a	-0.11629315
6	0xbe0bea28	-0.13663542
7	0xbe672f03	-0.22576527
8	0x3e875d2f	0.2643828
9	0xbe71abf7	-0.23600756

4.weight f4 [3, 10]
0	0x3e9938a6	0.29926032
1	0x3edd5f29	0.43236664
2	0x3e0c1e87	0.1368352
3	0x3e69b8da	0.22824422
4	0xbdae07ac	-0.08497557
5	0x3e889a8d	0.26680413
6	0xbf36d669	-0.71420914
7	0xbf0561cb	-0.52102345
8	0x3eee8e70	0.46593046
9	0x3d8b4e50	0.06802046
10	0xbf0586fb	-0.5215909
11	0x3da151d1	0.07876933
12	0xbd02688b	-0.03183798
13	0xbe4f0187	-0.20215426
14	0xbf2b8dec	-0.6701343
15	0xbe893e09	-0.26805142
16	0x3eaa4286	0.33253878
17	0xbf3f9b44	-0.7484629
18	0xbf026d52	-0.5094806
19	0x3da148b8	0.07875198
20	0xbea7772a	-0.32708102
21	0xbf2987d9	-0.6622291
22	0x3d95b7bb	0.073104344
23	0xbd884834	-0.06654397
24	0x3e656d9b	0.22405092
25	0x3e9a7e25	0.30174366
26	0x3ed467de	0.41485494
27	0x3f3e26ea	0.7427813
28	0xbe9d4a65	-0.3072082
29	0x3e9a42e3	0.30129156

4.bias f4 [3]
0	0xbe6c5966	-0.23080978
1	0x3d72331e	0.05913078
2	0xbebf3158	-0.37342334
